model.pth (torch, 155506 bytes, 54 tensors)

time_block.0.weight f4 [16, 9, 2]
0	0x3ef7946d	0.48355427
1	0x3f03fb06	0.51554906
2	0xbe61a36f	-0.22035001
3	0xbdfca178	-0.12335485
4	0xbd7e22ab	-0.06204478
5	0x3e060f2b	0.13091724
6	0x3f2d8ed0	0.6779604
7	0x3ebdb0d2	0.37048966
8	0x3d028acf	0.03187066
9	0x3de2cdd7	0.11074417
10	0x3e1897d3	0.14901666
11	0x3e166725	0.14687784
12	0xbebe8ea6	-0.37218207
13	0x3e8fc821	0.28082374
14	0xbdede5e8	-0.11616117
15	0xbe3f2829	-0.18667664
16	0xbe255cbb	-0.16148655
17	0x3c7d3d15	0.015456458
18	0xbe3cb17b	-0.18427078
19	0x3dbf1cd6	0.09331672
20	0x3dda400e	0.10656749
21	0xbdfd034f	-0.12354147
22	0x3e8378cc	0.25678098
23	0xbb3ded63	-0.0028980605
24	0xbec0c1b5	-0.37647787
25	0x3ee06887	0.43829748
26	0x3f368af4	0.71305776
27	0x3ef115ab	0.47086844
28	0x3e05d3e0	0.13069105
29	0x3dd9058f	0.10596763
30	0xbdfc27e7	-0.12312298
31	0xbc863cc9	-0.016386406
32	0x3df43800	0.11924744
33	0x3e09734d	0.1342289
34	0xbe86be0c	-0.2631687
35	0xbb68e021	-0.0035533982
36	0x3e6766fe	0.22597882
37	0xbe977c3f	-0.2958698
38	0xbe5a1d05	-0.21300133
39	0x3c94a265	0.018143842
40	0xbea5cbd5	-0.32382074
41	0xbed4e276	-0.41579026
42	0x3e4d018a	0.20020118
43	0x3dabbc98	0.08385581
44	0x3ef1fbfc	0.4726256
45	0x3bfebcf6	0.0077739907
46	0xbdc1c4af	-0.094613425
47	0x3d0bfec4	0.03417851
48	0xba9a6e3f	-0.0011782123
49	0x3d2b4592	0.041814394
50	0x3d312d8a	0.04325632
51	0xbddc0adf	-0.10744261
52	0xbec187e6	-0.37798995
53	0xbd2c707c	-0.04209946
54	0x3e5be875	0.21475394
55	0xbdcfc528	-0.101450264
56	0xbeb0987f	-0.34491345
57	0x3e6b0565	0.22951277
58	0xbe1b06fc	-0.15139383
59	0xbea05c90	-0.3132062
60	0xbda758d6	-0.08171241
61	0x3e9542d4	0.29152548
62	0xbd487dc6	-0.048948072
63	0xbe8b1522	-0.2716456
64	0x3d5dbb91	0.054133955
65	0xbd4c6a2c	-0.04990594
66	0x3ee30ed3	0.44347247
67	0xbde5c568	-0.11219293
68	0xbec02ad5	-0.37532678
69	0x3cfe791c	0.031063609
70	0xbd9f3119	-0.077730365
71	0x3cd24537	0.02566777
72	0xbe3c3827	-0.18380795
73	0x3dbaff33	0.09130707
74	0x3e90ba72	0.28267246
75	0x3e8037cc	0.2504257
76	0xbedd1da4	-0.43186677
77	0xbecc0f15	-0.39855257
78	0x3e00383d	0.12521453
79	0xbeaa1cd1	-0.3322511
80	0xbe29ae4e	-0.16570398
81	0xbe8ef6f5	-0.27922788
82	0xbd064f80	-0.03279066
83	0x3d6937cd	0.05693798
84	0x3e296a71	0.1654451
85	0xbe60d704	-0.21957022
86	0xbd873976	-0.06602757
87	0xbedad9c0	-0.42744255
88	0x3ed98724	0.42485917
89	0x3db8004f	0.08984434
90	0x3e73c5e6	0.23805961
91	0x3e60381f	0.21896408
92	0xbe359cd9	-0.17735614
93	0xbe3af617	-0.18257938
94	0xbdd3c2e8	-0.1033991
95	0x3e2a5723	0.16634803
96	0xbf2ae9ef	-0.66763204
97	0xbf17046a	-0.5899111
98	0x3ebdfcf5	0.37107053
99	0xbe12b08d	-0.14325161
100	0x3da3894a	0.0798517
101	0xbe47f398	-0.19526517
102	0xbea2f473	-0.31827125
103	0xbed515f8	-0.41618323
104	0x3d710814	0.058845595
105	0x3d496e8e	0.0491777
106	0xbcbbdedf	-0.022933422
107	0x3d3b90ec	0.045792505
108	0xbe0a98ce	-0.13534853
109	0x3da50bb6	0.08058874
110	0x3e6c8fe7	0.2310177
111	0x3df375f2	0.11887731
112	0xbe581030	-0.21099925
113	0xbed036b0	-0.40666723
114	0xbe7d45be	-0.24733636
115	0x3e228e4e	0.15874597
116	0x3d789a62	0.060694106
117	0xbe8ae97e	-0.27131265
118	0x3df03b42	0.117300525
119	0xbcbbca8d	-0.022923732
120	0x3e1d4c20	0.1536107
121	0xbea391e2	-0.31947237
122	0x3e395b11	0.18101145
123	0xbdc9a9a1	-0.09846807
124	0x3c97a802	0.01851273
125	0xbe096505	-0.13417442
126	0xbec836d5	-0.39104334
127	0xbf2e1eea	-0.6801592
128	0xbc5bfe69	-0.013427355
129	0x3e25b15a	0.16180936
130	0x3df3f919	0.11912746
131	0x3d605dab	0.05477683
132	0x3e351f6f	0.17687772
133	0x3e846555	0.2585856
134	0xbe253195	-0.16132195
135	0x3e2bb695	0.16768868
136	0xbe2f2f02	-0.17107776
137	0x3e2dabcc	0.16960067
138	0xbf76c1d6	-0.9638952
139	0xbf14325a	-0.5788933
140	0xbc178415	-0.009247799
141	0xbce81141	-0.02832854
142	0xbd0683d8	-0.03284058
143	0x3d8fb7c5	0.07017473
144	0x3dcae1c7	0.09906345
145	0x3c9b482c	0.018955313
146	0x3e62b699	0.22139968
147	0x3f094ce7	0.5363297
148	0x3e68a649	0.22719683
149	0x3ea1c8e2	0.31598574
150	0xbe88ae68	-0.2669556
151	0xbe42be64	-0.19017941
152	0xbd177240	-0.03697419
153	0xbce10194	-0.027466573
154	0x3de7fccd	0.11327515
155	0x3e7260db	0.2366976
156	0xbe754bd0	-0.23954701
157	0x3e4ebf2a	0.20190111
158	0x3e0f59c1	0.13999082
159	0x3e8dca7f	0.27693555
160	0x3e50b405	0.20381172
161	0x3e8b7641	0.27238658
162	0xbe6d62b6	-0.23182186
163	0x3e109c8f	0.14122222
164	0x3ea84fb1	0.328733
165	0x3e8ab50b	0.2709125
166	0xbf047b0b	-0.5175025
167	0xbe1d8044	-0.1538096
168	0x3dc581ba	0.09643884
169	0xbdfdaf74	-0.12386981
170	0xbdffd97e	-0.12492655
171	0xbe482c8b	-0.19548242
172	0x3b9607dd	0.004578574
173	0xbdddc936	-0.108293936
174	0x3e5169db	0.20450537
175	0xbc5d341e	-0.013501195
176	0x3d9faae8	0.0779627
177	0xbe05720a	-0.13031784
178	0xbe6676cf	-0.2250626
179	0xbe8d8ca6	-0.2764637
180	0xbe0a45d6	-0.13503203
181	0x3eccdf80	0.40014267
182	0x3e8774c2	0.26456267
183	0x3e7fda13	0.24985532
184	0xbe0a5da2	-0.1351228
185	0x3e6b4cb0	0.22978473
186	0x3ccef19e	0.025261696
187	0xbe76e903	-0.24112324
188	0xbe573a55	-0.21018346
189	0xbe0f7e4c	-0.14013022
190	0x3e9162f4	0.28395808
191	0x3d87173f	0.06596231
192	0x3e1575c9	0.14595713
193	0xbeb722ee	-0.35768837
194	0xbf04d329	-0.51884705
195	0xbea3be5a	-0.31981164
196	0xbd8f380c	-0.06993112
197	0x3c056466	0.008141613
198	0xbe42ec9d	-0.19035573
199	0x3e43032e	0.19044182
200	0x3ecf242d	0.40457287
201	0x3e70c66c	0.23513192
202	0xbd68c480	-0.056828022
203	0x3e7d6214	0.24744445
204	0xbe5818cb	-0.21103208
205	0x3ea4e9eb	0.32209715
206	0x3e77ba22	0.24192098
207	0x3cfc3927	0.030788971
208	0xbeb275e8	-0.3485558
209	0xbea7cc40	-0.32773018
210	0xbdc470a1	-0.09591795
211	0x3e9fe6a2	0.31230646
212	0x3d919d18	0.071100414
213	0x3e33c42d	0.17555304
214	0xbba3e4af	-0.0050016264
215	0x3d556765	0.052100558
216	0x3c8b3353	0.016992247
217	0x3e040bae	0.1289508
218	0xbde094ec	-0.109659046
219	0x3e7888d9	0.24270953
220	0xbe919af9	-0.28438547
221	0xbcf309ad	-0.0296677
222	0xbd35fc9e	-0.044430368
223	0xbc31b59d	-0.010846523
224	0xbc1708d5	-0.009218414
225	0x3e1185f9	0.14211263
226	0x3df54ec4	0.11977914
227	0x3ecb813a	0.3974703
228	0x3cdd0c5f	0.026983438
229	0xbe29fcfd	-0.16600414
230	0xbdae0271	-0.084965594
231	0xbe5c8e21	-0.21538593
232	0xbea550bf	-0.32288167
233	0xbe8a7737	-0.2704408
234	0xbf11c068	-0.56934214
235	0x3da646e6	0.081189916
236	0x3ef20e80	0.47276688
237	0x3d86e67b	0.065869294
238	0xbe7c5a17	-0.24643742
239	0x3d96f9ab	0.07371839
240	0x3db347f4	0.08753958
241	0x3e761731	0.24032284
242	0x3e694ede	0.22783992
243	0x3dc8ab07	0.09798246
244	0xbcb1f527	-0.021723343
245	0x3e9cb3e3	0.30605993
246	0xbeeb0660	-0.459033
247	0xbed1f827	-0.41009638
248	0xbd46c951	-0.048531834
249	0xbda8db57	-0.08244961
250	0xbcd28c04	-0.02570153
251	0xbe9ad46c	-0.3024019
252	0x3dfed094	0.12442127
253	0xbef34224	-0.475114
254	0x3d23b0df	0.0399636
255	0x3e58420d	0.21118946

time_block.0.bias f4 [16]
0	0xbbbb4475	-0.005714948
1	0xbdafeb68	-0.08589822
2	0x3c96eb64	0.01842279
3	0xbe2a65dc	-0.16640419
4	0xbe0b6c59	-0.1361555
5	0xbdc71f3b	-0.097227536
6	0x3c81a118	0.015823886
7	0x3d98bf68	0.07458383
8	0xbe3e3121	-0.18573429
9	0x3d0e4da6	0.03474202
10	0xbdd562d6	-0.10419242
11	0xbe0c19a9	-0.13681664
12	0xbd7de3cd	-0.061984826
13	0xbd8e5333	-0.06949463
14	0xbe133282	-0.14374736
15	0x3a86be15	0.0010280038

time_block.3.weight f4 [16, 16, 2]
0	0x3e6926b3	0.22768669
1	0x3ece2348	0.40261292
2	0x3e618e8f	0.22027038
3	0xbe942dd9	-0.2894123
4	0xbe7c8619	-0.24660529
5	0xbeb977ac	-0.36224115
6	0xbe1024c5	-0.14076526
7	0x3e20d970	0.15707946
8	0x3c1937e3	0.009351703
9	0xbd86cfc9	-0.065826006
10	0x3e300287	0.17188464
11	0xbe8c894c	-0.274485
12	0xbe612190	-0.2198546
13	0x3ca3f0d9	0.020012306
14	0xbe7d6de0	-0.24748945
15	0xbdd6ef2a	-0.10494836
16	0xbebb84d6	-0.36624783
17	0xbe12a2fb	-0.14319985
18	0xbea5ea84	-0.32405484
19	0x3d17c820	0.03705609
20	0xbe63c892	-0.2224448
21	0x3d4dde21	0.050260667
22	0xbe8de783	-0.27715692
23	0xbdd99a58	-0.10625142
24	0xbeeb72fc	-0.45986164
25	0xbd45fcef	-0.04833692
26	0x3e7d8712	0.24758556
27	0xbdd45414	-0.10367599
28	0x3d79e9c9	0.06101397
29	0x3e7406bf	0.23830698
30	0x3e2c513f	0.16827868
31	0xbead1547	-0.33805296
32	0xbe5b81e0	-0.21436262
33	0xbde619af	-0.112353675
34	0x3df514fb	0.11966892
35	0x3e49a020	0.19689989
36	0x3e29e323	0.16590552
37	0x3e2cdd59	0.16881312
38	0xbe283213	-0.16425352
39	0xbcfd3964	-0.030911155
40	0x3eadc258	0.33937335
41	0x3e61607d	0.22009464
42	0xbed2cbc0	-0.41171074
43	0xbf0c5e74	-0.54831624
44	0x3ec6c24a	0.38820106
45	0x3d84ec9e	0.06490444
46	0xbea1398e	-0.31489223
47	0xbdf30987	-0.118670516
48	0xbde5aac3	-0.11214211
49	0x3e3b8c18	0.1831516
50	0x3ec99170	0.39368773
51	0x3d81e5db	0.063426696
52	0x3db50ce2	0.08840348
53	0x3e6d368b	0.23165338
54	0x3eb28860	0.3486967
55	0x3e209e31	0.15685345
56	0x3e5b2949	0.21402468
57	0x3e80e750	0.25176477
58	0x3e64cd7a	0.22344008
59	0x3e39366f	0.18087171
60	0xbe9e5ca9	-0.3093007
61	0xbe12392a	-0.14279619
62	0xbe52dfcf	-0.20593189
63	0x3d9f4b58	0.077780426
64	0x3d4b7dff	0.049680706
65	0xbd2162dd	-0.039400924
66	0xbe0e94b6	-0.13923916
67	0x3b9cb742	0.004782588
68	0x3e9fcb35	0.31209722
69	0x3e3ed791	0.1863692
70	0x3d50329c	0.050829515
71	0x3e0e807f	0.13916205
72	0x3e47df5a	0.19518796
73	0xbe856bfe	-0.26058954
74	0x3ea7e26a	0.32789928
75	0x3dc25f9f	0.094908945
76	0xbc80dd76	-0.0157306
77	0x3e77e11a	0.24206963
78	0x3cd17bf3	0.025571799
79	0x3e8c2ecb	0.2737945
80	0xbd8a918e	-0.067660436
81	0x3e11314f	0.14178966
82	0x3d65db7f	0.05611753
83	0x3dea7100	0.11447334
84	0xbdbb4d8d	-0.09145651
85	0xbdf12f05	-0.117765464
86	0xbdd772bb	-0.1051993
87	0x3b4b46e3	0.0031017594
88	0xbe434e69	-0.1907288
89	0xbd69469f	-0.056952115
90	0x3dfe736c	0.12424359
91	0x3e6fa0f6	0.23401245
92	0x3e60217c	0.21887773
93	0x3ebe2ca5	0.37143436
94	0x3db5e698	0.08881873
95	0xbe66959c	-0.22518009
96	0xbe89095d	-0.26764956
97	0xbe85a301	-0.26100925
98	0x3e3cf6c7	0.18453513
99	0x3e19aaad	0.15006514
100	0x3e033bf1	0.12815835
101	0x3d98b1d1	0.07455791
102	0xbe6cbf9a	-0.23119965
103	0xbc7d2b51	-0.015452222
104	0x3de0eacf	0.10982286
105	0x3e292b91	0.16520526
106	0xbf0f161f	-0.5589313
107	0xbf1ae1a0	-0.60500526
108	0x3d8ce07d	0.06878755
109	0x3e053249	0.13007464
110	0xbeb1145d	-0.34585848
111	0xbe3fec04	-0.18742377
112	0x3dd28eef	0.10281169
113	0x3ec57a4e	0.38569874
114	0x3e7d4d06	0.24736413
115	0x3e1b6056	0.15173468
116	0x3ca73f4a	0.02041592
117	0x3ea9fdff	0.33201596
118	0x3f05f268	0.5232301
119	0x3e5f7781	0.21822931
120	0xbdf48d30	-0.11940992
121	0x3e1fcdbc	0.15605825
122	0xbe83a7d1	-0.2571397
123	0x3e2405ee	0.16017887
124	0x3deb1064	0.11477736
125	0xbe019788	-0.12655461
126	0xbe2a6292	-0.16639164
127	0xbe07fd34	-0.13280183
128	0xbea17946	-0.31537837
129	0xbce667a7	-0.028125597
130	0xbd4d7e90	-0.050169528
131	0x3e89f747	0.2694647
132	0x3e89e263	0.26930532
133	0xbcac6277	-0.021043045
134	0xbd40561c	-0.04695712
135	0xbc929230	-0.017891973
136	0x3e7d3d81	0.24730493
137	0x3eb902e1	0.3613501
138	0xbef79cbb	-0.48361763
139	0xbe75a7a0	-0.23989725
140	0x3e1e4aba	0.15458193
141	0x3dfe8a91	0.12428773
142	0xbe9a9021	-0.30188087
143	0xbd8f9ed1	-0.07012714
144	0x3e25101b	0.16119425
145	0x3ed5eecb	0.41783747
146	0x3ea6a1c9	0.32545307
147	0x3e398637	0.18117605
148	0xbc22b377	-0.009930483
149	0x3e8173ea	0.25283748
150	0x3ef93cc3	0.4867917
151	0x3eb23e41	0.3481312
152	0x3e6cf483	0.23140149
153	0x3e6c2dd2	0.23064354
154	0xbe2d5826	-0.16928157
155	0x3e134bc3	0.1438437
156	0xbdbbdc43	-0.09172871
157	0x3dbfecc0	0.09371328
158	0x3c909d37	0.01765309
159	0x3e1801c5	0.14844425
160	0x3d48f4c6	0.04906156
161	0xbeb57ca4	-0.35446656
162	0x3e06acad	0.13151808
163	0x3e3b6346	0.18299589
164	0xbc8701eb	-0.016480407
165	0xbe3f2fe4	-0.18670613
166	0xbd9b3643	-0.07578709
167	0xbd685011	-0.056716982
168	0xbea3f0cf	-0.3201966
169	0xbe1e7795	-0.15475304
170	0xbe10b635	-0.14132006
171	0xbd7f8a9d	-0.06238805
172	0xbe17532d	-0.14777823
173	0xbc39d3f0	-0.011342034
174	0xbe80f553	-0.25187168
175	0x3e1856fc	0.14876932
176	0x3eaace07	0.3336031
177	0x3dd2c9cd	0.10292397
178	0x3dc02250	0.093815446
179	0x3ceb3e3d	0.028716201
180	0x3e044ee6	0.12920722
181	0x3e279445	0.16365154
182	0x3e1fed66	0.15617904
183	0xbebfb81c	-0.37445152
184	0x3de4ab93	0.11165538
185	0x3e0985b4	0.1342991
186	0x3e5eadfe	0.2174606
187	0x3e6928ff	0.22769545
188	0x3d07bbf8	0.033138245
189	0xbecf1dab	-0.40452322
190	0xbdf251f2	-0.11832036
191	0x3e3b6235	0.18299182
192	0xbe81ee0e	-0.25376934
193	0x3c3e30ff	0.011608361
194	0xbe337da1	-0.17528392
195	0x3e545f01	0.20739366
196	0x3e503129	0.20331253
197	0x3e9f1780	0.31072617
198	0xbda38267	-0.07983857
199	0x3e918ee7	0.28429338
200	0xbb4f517c	-0.0031634262
201	0x3eaac310	0.33351946
202	0xbf0beca7	-0.5465798
203	0xbec85aa4	-0.39131653
204	0xbdc36720	-0.09541154
205	0x3e9a8eb1	0.3018699
206	0xbe462cf9	-0.19353093
207	0xbe9705a1	-0.29496482
208	0xbd2d2791	-0.04227406
209	0x3e8d6387	0.27614996
210	0x3e12a0f6	0.14319214
211	0x3ebf5269	0.3736756
212	0x3d8d2e22	0.06893565
213	0x3e7ee6f9	0.24892797
214	0x3eb242c1	0.34816554
215	0x3e69d842	0.22836402
216	0x3df39f81	0.11895657
217	0x3ec1d27e	0.37855905
218	0xbe71c9b9	-0.23612107
219	0x3e3acd0d	0.18242283
220	0x3d1e4879	0.038643334
221	0xbc956e2e	-0.018241014
222	0x3e8bd03d	0.2730731
223	0x3ecef6f2	0.4042278
224	0xbdad3d5a	-0.084589675
225	0xbe9b282b	-0.30304083
226	0x3e870063	0.26367483
227	0x3efac452	0.48977906
228	0x3e27f76e	0.1640298
229	0x3ed03631	0.40666345
230	0xbd976bc5	-0.07393602
231	0x3e69c89e	0.22830436
232	0xbdd45eb5	-0.103696264
233	0x3dbf828a	0.0935107
234	0xbef08c9c	-0.46982276
235	0xbef3550e	-0.4752583
236	0xbd021c77	-0.031765427
237	0x3e6799dc	0.22617286
238	0xbe9c0ca5	-0.30478397
239	0xbf0221f3	-0.5083305
240	0xbec53f2a	-0.38524753
241	0x3f08f18d	0.5349358
242	0xbca5e66d	-0.020251477
243	0xbda99462	-0.08280255
244	0xbb722acd	-0.003695178
245	0xbaf11d90	-0.0018395651
246	0x3e82a4a5	0.2551624
247	0x3d9ce603	0.07661059
248	0xbe3c48ac	-0.18387097
249	0x3d7f0216	0.06225785
250	0xbe0b0b3f	-0.13578509
251	0xbdf0ab61	-0.11751438
252	0xbd9a44d3	-0.075326584
253	0xbe67fd6f	-0.22655271
254	0x3e9cc5e5	0.30619732
255	0x3ea38535	0.31937566

time_block.3.bias f4 [16]
0	0x3e2a2113	0.1661418
1	0x3d41804c	0.047241494
2	0xbe53d7e1	-0.2068782
3	0x3d8d60e4	0.06903246
4	0xbe0b82f7	-0.13624178
5	0xbe909067	-0.2823517
6	0xbd7c5d96	-0.061612688
7	0x3db5293e	0.08845757
8	0x3dc54165	0.09631614
9	0xbe817d4a	-0.252909
10	0xbe35f9df	-0.177711
11	0xbe3b1553	-0.18269853
12	0x3d78a4c8	0.060704023
13	0xbe0fa202	-0.14026645
14	0xbca2d2d1	-0.019875916
15	0xbda1b2c9	-0.07895429

time_block.6.weight f4 [16, 16, 2]
0	0x3e678494	0.22609168
1	0x3d944b6d	0.07240949
2	0xbe52bf3d	-0.20580764
3	0xbe35459b	-0.17702334
4	0x3e28f1aa	0.16498438
5	0x3ddad82e	0.10685764
6	0x3e0232b7	0.12714659
7	0x3e122251	0.14270903
8	0x3b39527d	0.0028277927
9	0xbe378bcb	-0.1792442
10	0x3ed059c1	0.40693477
11	0x3e8079eb	0.25093016
12	0xbf198bd4	-0.59978986
13	0xbdbf6448	-0.09345299
14	0x3e3a9566	0.18221053
15	0xbd423c34	-0.047420695
16	0x3dea1441	0.114296444
17	0x3d4ef692	0.050528117
18	0x3eb38cc6	0.3506834
19	0x3d96efec	0.0736998
20	0xbe826834	-0.25470126
21	0xbe80fc0e	-0.25192302
22	0xbd800a20	-0.06251931
23	0xbf0d84fc	-0.55281043
24	0xbdd1312e	-0.102144584
25	0xbc2c69d8	-0.010523282
26	0x3df6bfd6	0.120483086
27	0x3e70fccf	0.23533939
28	0xbe0d0f01	-0.13775255
29	0xbe7dc9ce	-0.24784014
30	0xbf0989c7	-0.53725857
31	0xbeda0f8e	-0.42589992
32	0xbeb229a4	-0.34797394
33	0xbefa8a9f	-0.48933885
34	0x3de322e2	0.11090638
35	0x3e04f03d	0.12982269
36	0xbf2bdc77	-0.6713328
37	0xbf0f42a0	-0.55961037
38	0x3e87a322	0.26491648
39	0x3e320569	0.17384876
40	0x3e5f3e28	0.21801054
41	0x3e6c1b91	0.23057391
42	0x3ce6ceed	0.028174842
43	0x3eb94a82	0.36189657
44	0xbe235416	-0.15950045
45	0xbc8459bc	-0.01615607
46	0x3df5c2ae	0.12000023
47	0x3cb3dcf4	0.021955945
48	0x3e37d1aa	0.17951074
49	0x3e6a5090	0.22882295
50	0xbe3d417f	-0.18482016
51	0xbf05251f	-0.5200977
52	0xbd69ca7e	-0.057077877
53	0x3efd651c	0.49491203
54	0xbe812b74	-0.25228465
55	0xbdcf512f	-0.101229064
56	0x3d0f3e78	0.034971684
57	0xbd6fcde0	-0.058545947
58	0xbf1715ae	-0.59017456
59	0xbeb1ddc7	-0.34739515
60	0xbe1710e0	-0.14752531
61	0x3d8f146e	0.069863185
62	0xbd92bb81	-0.0716467
63	0xbde5be67	-0.11217957
64	0xbd4c07e1	-0.0498122
65	0xbe308135	-0.17236789
66	0xbdacb941	-0.08433772
67	0x3dca4d82	0.09878065
68	0xbe844fa3	-0.25842008
69	0xbd5e3582	-0.054250248
70	0x3db02f83	0.08602812
71	0x3e14f161	0.14545204
72	0x3e6b6d5b	0.22990935
73	0x3ed57f70	0.4169879
74	0xbf1606ca	-0.5860411
75	0x3b26f152	0.0025473428
76	0x3eb70b53	0.35750827
77	0x3e6215b4	0.22078592
78	0x3ee9b7f2	0.45648152
79	0x3ea748fe	0.32672876
80	0xbe008731	-0.12551571
81	0xbd2957e7	-0.041343596
82	0x3cef697e	0.029225107
83	0x3b8abc81	0.004233897
84	0xbe30a06d	-0.17248698
85	0xbe4ca778	-0.1998576
86	0x3e691cb8	0.22764862
87	0x3e56dac3	0.20981888
88	0xbd44412e	-0.047913723
89	0x3d550bec	0.052013323
90	0xbe85473e	-0.26030916
91	0xbe90566b	-0.28190932
92	0xbd23679b	-0.039893728
93	0x3d30ceae	0.043165855
94	0xbdeab287	-0.11459833
95	0x3d051944	0.0324948
96	0xbd8dbad5	-0.06920401
97	0xbdb2f3c4	-0.08737901
98	0xbc22ad5b	-0.0099290265
99	0x3ddd2982	0.107989326
100	0x3d942b52	0.07234825
101	0xbd5fd1ce	-0.054643445
102	0x3de60249	0.112309046
103	0x3bfd9826	0.007739085
104	0x3c3b6d81	0.011439682
105	0xbdcc9fae	-0.09991394
106	0xbd81f100	-0.06344795
107	0x3dff3c15	0.124626316
108	0xbd279c7e	-0.040920727
109	0x3d8a52ee	0.06754099
110	0xbd9137d7	-0.07090729
111	0x3d52f623	0.051504266
112	0xbda0956b	-0.07840999
113	0xbe188c19	-0.14897193
114	0x3db1ea58	0.08687276
115	0xbb94b266	-0.0045378683
116	0xbe10a85f	-0.14126728
117	0xbb8a364d	-0.004217899
118	0xbd4bd13b	-0.049760085
119	0xbe334010	-0.17504907
120	0xbe3cbdd8	-0.18431795
121	0x3c989054	0.018623509
122	0xbe3f49a5	-0.18680437
123	0x3d06c827	0.032905724
124	0xbe1dd860	-0.15414572
125	0xbddd97b9	-0.108199544
126	0xbde16b0e	-0.11006747
127	0xbe39c802	-0.18142703
128	0x3e82af85	0.25524536
129	0xbec1bca2	-0.37839228
130	0xbe59c395	-0.21266015
131	0xbd94abf1	-0.07259358
132	0xbf155db6	-0.58346117
133	0xbebb7715	-0.3661429
134	0xba928f2f	-0.0011181588
135	0x3e5529d4	0.20816737
136	0xbcdb476e	-0.026767459
137	0x3e3127a5	0.1730028
138	0xbe018e50	-0.12651944
139	0xbd927e18	-0.07152957
140	0x3db856bd	0.09000919
141	0x3e828605	0.25492874
142	0x3d7901aa	0.060792603
143	0x3e9c4891	0.30524114
144	0xbe352f85	-0.17693909
145	0x3d901e7e	0.07037066
146	0x3e232db5	0.15935405
147	0x3ab2b5d5	0.0013634512
148	0xbeea002e	-0.45703262
149	0xbdf4403e	-0.11926316
150	0xbe378800	-0.17922974
151	0x3dc84e11	0.09780515
152	0xbdc30ffd	-0.09524534
153	0x3e4bb5cc	0.19893569
154	0xbe85ae5d	-0.2610959
155	0xbe6ef486	-0.23335466
156	0x3e2814cc	0.16414183
157	0xbdb21176	-0.08694737
158	0xbe315ba3	-0.17320113
159	0x3dcc0b0c	0.099630445
160	0x3d51daa6	0.05123391
161	0xbc9461a4	-0.018112965
162	0xbe1bfc9d	-0.15233083
163	0xbe556b41	-0.20841695
164	0xbd17928b	-0.03700499
165	0xbe54da62	-0.20786431
166	0xbe35c040	-0.17749119
167	0xbc81063e	-0.015750047
168	0xbd14fd70	-0.03637451
169	0xbe295e9d	-0.16539998
170	0xbde510b9	-0.1118483
171	0x3d75cc55	0.06000932
172	0xbe2b3a9c	-0.16721576
173	0x3d9e6101	0.07733346
174	0x3daa3f87	0.08312898
175	0xbe3e7686	-0.185999
176	0x3dd4e3b1	0.10394991
177	0x3d5dfef3	0.054198217
178	0xbdf88e18	-0.12136477
179	0xbc4e564a	-0.012593815
180	0xbd902689	-0.070386
181	0x3e14584e	0.1448681
182	0xbdbb13d6	-0.09134643
183	0xbd9b676e	-0.07588087
184	0x3dc2d51a	0.09513302
185	0xbe0e02cf	-0.13868259
186	0x3c671373	0.014103758
187	0x3c1ee5f8	0.0096983835
188	0x3d0a29b3	0.033731174
189	0x3d80724b	0.062718
190	0xbd2f1ae3	-0.04275025
191	0xbdb031ca	-0.086032465
192	0xbc38c20e	-0.011276735
193	0xbe7b740d	-0.24555989
194	0xbbb1159d	-0.005404188
195	0x3e8f800b	0.28027377
196	0xbe9ca15e	-0.30591863
197	0xbd9b7184	-0.07590011
198	0x3cc4bc3e	0.024015542
199	0x3eb14238	0.34620833
200	0x3cf5a0ac	0.02998384
201	0x3edd6398	0.43240047
202	0xbec1055a	-0.37699395
203	0xbdb16ce3	-0.086633466
204	0x3eb33850	0.350039
205	0x3d9aa5c8	0.075511515
206	0x3eba8ed1	0.36437085
207	0x3db9d766	0.09074287
208	0x3da8f857	0.08250492
209	0x3e91c6be	0.2847194
210	0xbdb4d34e	-0.08829366
211	0xbd937230	-0.07199514
212	0xbdf159fc	-0.11784741
213	0xbe776c58	-0.24162424
214	0xbd005752	-0.031333275
215	0x3cc87bb0	0.024473041
216	0x3d7d58a7	0.061852124
217	0x3d368089	0.044556174
218	0xbe84efa9	-0.25964096
219	0xbeb1b92a	-0.3471158
220	0xbd2254dd	-0.039631713
221	0x3e3fd149	0.1873218
222	0xbd9f2e76	-0.077725336
223	0xbcda31ca	-0.02663507
224	0x3d08e1a8	0.033418328
225	0x3cb278b4	0.021786071
226	0x3e51bc49	0.20481981
227	0x3e91a28f	0.28444335
228	0xbe3ef940	-0.18649769
229	0xbd048434	-0.03235264
230	0x3d0331bc	0.032029852
231	0x3e80ad8b	0.25132403
232	0x3e5a98a5	0.21347292
233	0x3f055f00	0.52098083
234	0xbf29e5e8	-0.66366434
235	0xbdfe4f92	-0.124175206
236	0x3e97d3b5	0.29653707
237	0x3edb3c09	0.4281924
238	0x3ed55fe9	0.41674736
239	0x3ea55e00	0.3229828
240	0x3de8af61	0.11361576
241	0x3d91bbc0	0.071158886
242	0x3e2fa4a7	0.17152654
243	0x3e1b21a5	0.15149553
244	0xbe843c19	-0.258271
245	0xbec1564f	-0.3776116
246	0xbd5864a0	-0.05283034
247	0x3d2ed609	0.04268459
248	0x3e242ced	0.16032763
249	0x3d6c509a	0.057694055
250	0xbe99b0b7	-0.30017635
251	0xbee24f21	-0.44200996
252	0x3c3cdd34	0.011527348
253	0x3e88ef72	0.26745182
254	0x3e15913f	0.14606188
255	0x3c91b736	0.017787557

time_block.6.bias f4 [16]
0	0x3e2bfd13	0.16795759
1	0x3da75689	0.08170802
2	0x3ad1b35e	0.001599889
3	0xbdb73206	-0.08945088
4	0xbdeeb8af	-0.11656319
5	0xbe49b628	-0.19698393
6	0x3c365d85	0.011130695
7	0x3d8c4dd9	0.06850786
8	0xbea5945a	-0.32339746
9	0x3de22962	0.110430494
10	0xbbeaac3c	-0.007161645
11	0x3c703941	0.014662088
12	0xbd614aca	-0.055002965
13	0x3ce6759a	0.028132249
14	0xbe73ee08	-0.2382127
15	0xbd37f0c4	-0.044907346

time_block.8.weight f4 [32, 16, 2]
0	0xbdac5ec5	-0.08416513
1	0xbdfdaaae	-0.1238607
2	0x3df92591	0.12165368
3	0xbc09ba6f	-0.008406266
4	0xbcda5b58	-0.026654884
5	0x3cbcdc03	0.023054129
6	0x3db0561f	0.08610176
7	0x3ac17b49	0.0014761473
8	0x3d61b8ee	0.055108003
9	0x3d094415	0.033512194
10	0xbd7a0bc1	-0.061046366
11	0xbe0e893b	-0.13919537
12	0xbca6b6b6	-0.020350795
13	0xbcee92f9	-0.029122816
14	0xbe2e33f7	-0.1701201
15	0xbe373170	-0.17889953
16	0x3d6370bf	0.055527445
17	0x3d2eee4d	0.04270773
18	0x3dacc824	0.08436611
19	0x3d9689d2	0.07350506
20	0xbda9df77	-0.08294576
21	0xbdf7a44e	-0.120918855
22	0xbdbe3d44	-0.09289029
23	0xbdeffbc1	-0.1171794
24	0x3cdf18e9	0.027233558
25	0xbe37aef1	-0.17937829
26	0xbcbe33f7	-0.023218138
27	0xbe38e02c	-0.18054265
28	0x3d0f2ee0	0.034956813
29	0x3dbd16b8	0.09232849
30	0x3dc82dda	0.097743705
31	0x3c3f24a1	0.011666448
32	0xbdb9ee8a	-0.09078701
33	0xbe1a38bb	-0.15060703
34	0xbe21965d	-0.15780015
35	0xbd1acc04	-0.03779222
36	0xbd55a5b9	-0.05216
37	0xbe357c9e	-0.17723319
38	0xbe0a852d	-0.13527365
39	0x3e0d8f47	0.13824187
40	0x3d917895	0.07103077
41	0xbd0e3617	-0.034719553
42	0x3dc45ab3	0.09587612
43	0x3cf36bad	0.02971443
44	0x3cf33d58	0.029692337
45	0xbd911743	-0.07084515
46	0xbda154f1	-0.078775294
47	0xbdd07472	-0.1017846
48	0xbd2a9d4e	-0.041653924
49	0xbda190cb	-0.07888945
50	0x3d97fe85	0.074215926
51	0xbcf81d8a	-0.030287523
52	0x3d52317c	0.051316723
53	0x3c7e9aa4	0.015539799
54	0x3dad7f80	0.08471584
55	0xbde9b6ee	-0.11411844
56	0xbdb250a4	-0.08706787
57	0xbe1cd4dc	-0.15315574
58	0xbde4447d	-0.111458756
59	0x3db66c6d	0.08907399
60	0xbe0bd513	-0.136555
61	0xbdf9a608	-0.12189871
62	0xbd4e103d	-0.050308455
63	0x3c041e36	0.0080638435
64	0xbe008646	-0.12551221
65	0xbd4a819e	-0.04944002
66	0xbba3ef9d	-0.0050029294
67	0xbd1cdb10	-0.03829485
68	0xbe0436f8	-0.12911594
69	0xbdd72ee7	-0.10506993
70	0xbd498792	-0.049201556
71	0x3e078643	0.1323481
72	0x38af34d6	8.354492e-05
73	0x3e135d7b	0.14391129
74	0x3cd1e54b	0.02562203
75	0xbdd3c31f	-0.10339951
76	0xbc94abdb	-0.018148353
77	0xbd8de1c2	-0.069278255
78	0xbdc26f20	-0.09493852
79	0x3d991cb9	0.074761815
80	0xbddc09cc	-0.10744056
81	0xbe172916	-0.14761767
82	0x3d98fb0b	0.07469758
83	0xbdbaea31	-0.091267
84	0xbc392057	-0.011299214
85	0xbc634e38	-0.013873629
86	0x3d864658	0.06556386
87	0x3e1538b5	0.14572413
88	0xbe3d311c	-0.18475765
89	0x3d6a9284	0.057268634
90	0xbdcbd7f3	-0.099532984
91	0x3ca1aed3	0.019736683
92	0xbd156abe	-0.03647875
93	0x3e3ae9a8	0.18253195
94	0xbe5b4b97	-0.21415554
95	0xbd518e8a	-0.051161326
96	0x3e2a2a60	0.16617727
97	0x3d907981	0.07054425
98	0xbd8c651e	-0.06855224
99	0xbe97157e	-0.29508585
100	0x3e15e09b	0.14636461
101	0xbdd93d54	-0.106074005
102	0xbdd68c7d	-0.10476015
103	0xbe18e2e3	-0.149303
104	0x3d9100a2	0.07080199
105	0xbde01f05	-0.109434165
106	0xbc274aba	-0.010210687
107	0xbe0fcd38	-0.14043128
108	0xbe0d641c	-0.1380772
109	0xbe9a8548	-0.3017981
110	0xbdba6f7b	-0.091032945
111	0xbeb572d3	-0.35439166
112	0x3f0a9fca	0.5415007
113	0x3e913c27	0.28366205
114	0xbcafaf3d	-0.021445865
115	0xbed985af	-0.42484805
116	0xbd311aae	-0.043238334
117	0xbe43b4b4	-0.19111902
118	0xbe459a04	-0.19297034
119	0xbda4b335	-0.080419935
120	0x3e13ac00	0.14421082
121	0x3db22a12	0.086994305
122	0xbeddd734	-0.4332825
123	0xbe8f02f0	-0.2793193
124	0x3eb10286	0.34572238
125	0xbe01fb96	-0.12693629
126	0x3e0785e3	0.13234667
127	0xbdb2f964	-0.08738974
128	0xbe7c4e4a	-0.2463924
129	0xbf4b4e05	-0.79415923
130	0xbd9a3c75	-0.075310625
131	0xbe296171	-0.16541077
132	0xbd89a6ba	-0.06721254
133	0x3d33acd6	0.043866
134	0xbd26aee4	-0.040694132
135	0x3d38fd89	0.045163665
136	0xbe9b241e	-0.30300993
137	0x3d5cc1fe	0.053895943
138	0xbe10f89c	-0.14157337
139	0xbd652903	-0.055947315
140	0xbc62ea8d	-0.013849867
141	0x3d28614a	0.041108407
142	0x3c07bea7	0.008285201
143	0x3e0e2e91	0.13884951
144	0x3e64f5ce	0.22359392
145	0x3e1f995b	0.15585844
146	0xbd8f4565	-0.06995658
147	0x3e2b3e34	0.16722947
148	0x3e8b1f21	0.27172187
149	0x3e1e7560	0.15474463
150	0xbea21432	-0.31656033
151	0xbeb02efa	-0.3441084
152	0x3e0cddf7	0.13756548
153	0x3e2890d2	0.16461495
154	0x3db61338	0.088903844
155	0x3e05827b	0.13038056
156	0xbe8c4b0f	-0.27401015
157	0x3eda054f	0.42582175
158	0x3d466d5d	0.04844414
159	0x3e02a6e2	0.12758973
160	0xbd8aaa50	-0.06770766
161	0xbe2c7aac	-0.1684367
162	0xbe03441e	-0.12818953
163	0xbdb825ea	-0.089916065
164	0xbd2aa398	-0.04165992
165	0xbe64adff	-0.22331999
166	0x3d37ba9a	0.04485569
167	0xbddefbfe	-0.108879074
168	0x3e40a67f	0.18813513
169	0x3e821343	0.2540532
170	0x3db00216	0.08594148
171	0xbe17ee41	-0.1483698
172	0x3e981661	0.29704574
173	0x3d2ae79b	0.041724782
174	0xbd2b45f1	-0.04181475
175	0x3e229dc9	0.15880503
176	0xbe4e3eef	-0.20141195
177	0xbe1f806e	-0.15576336
178	0x3dd5b8d3	0.10435643
179	0xbdbc6f3b	-0.09200903
180	0xbe736176	-0.23767647
181	0xbee716c2	-0.4513455
182	0xbf19ca53	-0.6007435
183	0xbf007ecc	-0.50193477
184	0xbed04f83	-0.40685663
185	0xbe8c5c38	-0.27414107
186	0xbcf09da1	-0.029372038
187	0xbdee91c7	-0.116488986
188	0xbe14d374	-0.14533788
189	0x3caef4dd	0.021356994
190	0xbf26ec2c	-0.6520412
191	0xbf122ef3	-0.5710289
192	0x3ba4ef7b	0.005033431
193	0x3e2dcd6e	0.16972896
194	0xbe95cfc8	-0.29260087
195	0xbdab9a8c	-0.08379087
196	0xbe147de7	-0.14501153
197	0xbd0c7001	-0.034286503
198	0x3e0dd7f0	0.13851905
199	0xbdd6f8c3	-0.10496666
200	0xbe7ed7fc	-0.24887079
201	0x3ee602b9	0.44923952
202	0xbdcadcc4	-0.09905389
203	0xbdf965c3	-0.12177613
204	0xbd86c6ed	-0.06580911
205	0xbdfa0e98	-0.12209815
206	0xbd69ef60	-0.05711305
207	0x3d31d18b	0.043412726
208	0x3f0d22a7	0.55131
209	0x3eb09d2e	0.3449492
210	0xbd2fd3fc	-0.042926773
211	0xbdc26a46	-0.09492926
212	0x3e9c6288	0.30543923
213	0x3ed00fed	0.4063715
214	0xbe0ce130	-0.13757777
215	0xbe030486	-0.12794694
216	0x3ee6b687	0.45061132
217	0x3e7f5912	0.24936321
218	0xbdb5c699	-0.0887577
219	0xbe5b40e7	-0.21411477
220	0x3cf3b983	0.029751545
221	0x3da70b6a	0.08156474
222	0x3ead6866	0.33868712
223	0x3df0089f	0.11720394
224	0x3de2e7b6	0.110793516
225	0xbefdcbbb	-0.49569497
226	0xbf0381c9	-0.5136991
227	0xbecc29c5	-0.39875618
228	0x3cffaac2	0.031209353
229	0x3d8b32a4	0.06796768
230	0x3e3a494c	0.18192023
231	0xbcffe5d8	-0.031237528
232	0x3e84bf34	0.25927126
233	0x3ec51abe	0.38496965
234	0xbdc34bde	-0.09535955
235	0xbc35a0c1	-0.01108569
236	0x3c6d5412	0.014485376
237	0x3df7a5da	0.120921806
238	0x3dc6c52e	0.09705578
239	0x3de9c331	0.11414183
240	0xbe853183	-0.26014337
241	0xbeec7feb	-0.46191344
242	0x3c481aa3	0.012213382
243	0x3d4b6259	0.04965434
244	0xbec42c33	-0.3831497
245	0xbea02807	-0.31280538
246	0x3dc6d209	0.0970803
247	0x3ec664a9	0.38748673
248	0xbec86a6a	-0.39143687
249	0xbe127303	-0.14301686
250	0xbe26804a	-0.16259876
251	0xbd6bdc20	-0.057582974
252	0xbd5ca024	-0.05386366
253	0xbd92a133	-0.071596526
254	0xbed3d6f6	-0.4137494
255	0xbeee40a8	-0.46533704

time_block.8.bias f4 [32]
0	0xbe115539	-0.14192666
1	0xbd0aadb2	-0.033857055
2	0xbe25d4d9	-0.16194476
3	0xbbcc7d29	-0.006240506
4	0xbe16308b	-0.14666955
5	0x3dca2cd4	0.098718315
6	0xbe050f62	-0.1299415
7	0xbe2e1e22	-0.17003682
8	0xbda9476c	-0.08265576
9	0xbd4dad35	-0.05021401
10	0xbd29cfc6	-0.041457914
11	0xbe130d3e	-0.1436052
12	0xbc551532	-0.013005542
13	0xbd992c30	-0.07479131
14	0xbd36ed35	-0.044659812
15	0xbc1a425a	-0.0094152335
16	0xbca7c0ec	-0.020477735
17	0x3e3d0a27	0.18460904
18	0x3d179511	0.037007395
19	0x3e2955c2	0.1653662
20	0xbe1eafa1	-0.15496685
21	0xbd801382	-0.06253721
22	0x3d9eff09	0.07763488
23	0x3dd72e47	0.105068736
24	0x3e124251	0.1428311
25	0xbcde7ff7	-0.027160628
26	0x3ca65c87	0.020307792
27	0x3d00edf2	0.031476922
28	0xbd9ad48f	-0.075600736
29	0xbe165154	-0.14679462
30	0xbde7afb0	-0.113128066
31	0x3ddbf374	0.107397944

time_block.10.weight f4 [32, 32, 2]
0	0xbd83e8c3	-0.0644088
1	0xbdbf4357	-0.09339016
2	0xbdb917b2	-0.09037723
3	0x3c2df80a	0.010618219
4	0xbd262382	-0.040561207
5	0xbd91426b	-0.07092746
6	0xbd072727	-0.032996323
7	0xbdb62bf6	-0.08895104
8	0x3cc7089e	0.024296101
9	0xbdaa9b57	-0.0833041
10	0x3cd1eff6	0.025627118
11	0x3d8727ad	0.065993644
12	0xbd80972b	-0.06278833
13	0xbdbfd081	-0.09365941
14	0xbd164fcb	-0.03669719
15	0xbd219ca5	-0.03945603
16	0xbdae2ac8	-0.085042536
17	0xbdb8f618	-0.09031314
18	0xbd8d7781	-0.06907559
19	0xbcfef732	-0.031123731
20	0xbda20f34	-0.07913056
21	0xbd6150df	-0.055008765
22	0xbc215a62	-0.009848209
23	0xbd1bd56f	-0.038045343
24	0xbc9565f1	-0.018237086
25	0xbdb6cfef	-0.08926379
26	0x3cc6965e	0.024241623
27	0xbdcfac94	-0.101403385
28	0xbdf04526	-0.11731939
29	0x3b0cdf32	0.002149534
30	0xbc9fe5e7	-0.019518806
31	0x3c80abc4	0.015706904
32	0x3d9a126c	0.07523045
33	0xbc9fa1dd	-0.019486362
34	0xbc5645cb	-0.013078163
35	0x3ccadba8	0.024762943
36	0x3c662cfc	0.014048811
37	0xbdaab18d	-0.083346464
38	0xbddd0d61	-0.107935674
39	0x3db11b4b	0.08647784
40	0xbdf36460	-0.118843794
41	0xbc591091	-0.013248579
42	0x3d0c9acd	0.034327317
43	0xbd7752e4	-0.060381785
44	0x3db2a6b4	0.08723202
45	0xbddd1d62	-0.1079662
46	0xbdfeb4fe	-0.12436865
47	0xbdb0061b	-0.085949145
48	0xbd277463	-0.04088248
49	0xbc73e3a7	-0.0148858195
50	0x3bc3725b	0.00596456
51	0xbd92ff02	-0.07177545
52	0xbd0151de	-0.031572215
53	0x3d9a11e0	0.07522941
54	0xbc99cbb1	-0.018773885
55	0x3d0fa4a9	0.03506914
56	0xbd8cf577	-0.06882756
57	0x3d24e3e3	0.040256392
58	0x3cffa7ec	0.031208001
59	0xbcafff42	-0.021484021
60	0xbd7fb0c4	-0.062424436
61	0x3c92e54e	0.017931607
62	0xbbe67bd9	-0.0070338068
63	0x3c9afd48	0.018919602
64	0x3d2fa43b	0.04288123
65	0xbdd6502c	-0.1046451
66	0xbd85976d	-0.06523023
67	0x3dd75fab	0.10516294
68	0x3db964fd	0.09052465
69	0x3e0ce149	0.13757814
70	0x3d0dd583	0.03462745
71	0x3cf4e0e8	0.0298924
72	0x3deb84fc	0.11499974
73	0xbc48bb52	-0.012251692
74	0x3e0583e7	0.13038598
75	0x3dbea672	0.09309091
76	0x3e086039	0.13317956
77	0x3ea4eadd	0.32210436
78	0xbda369f8	-0.07979196
79	0xbd414837	-0.04718801
80	0x3d4652ae	0.048418693
81	0x3d459b54	0.048243836
82	0x3cdff7fd	0.02733993
83	0x3c306701	0.010766746
84	0xbcb81899	-0.022472667
85	0x3ded36c8	0.11582714
86	0x3d8b5e3a	0.06805082
87	0x3d602510	0.054722846
88	0xbddb81c1	-0.10718108
89	0x3bd5fd93	0.0065304725
90	0xbdc29200	-0.095005035
91	0xbea94e1c	-0.33067405
92	0xbf3f5b0f	-0.7474832
93	0xbf46a5f4	-0.77596974
94	0x3da0e613	0.07856383
95	0x3c822ecc	0.015891455
96	0x3da6600d	0.08123789
97	0xbd8a5787	-0.06754976
98	0x3e751d9b	0.23937075
99	0x3e4f8b16	0.20267901
100	0xbeb08238	-0.3447435
101	0xbe65ca1a	-0.22440377
102	0x3dd60f34	0.104521185
103	0x3de71f80	0.11285305
104	0x3d9fad48	0.07796723
105	0xbe5c8cc5	-0.21538074
106	0x3e8dda84	0.27705777
107	0xbebfc644	-0.37455952
108	0xbe146df1	-0.14495064
109	0xbdef9cd9	-0.11699838
110	0xbd633bfe	-0.055477135
111	0x3ddd4c07	0.10805517
112	0x3b960004	0.0045776386
113	0x3de63b92	0.11241831
114	0x3e5d7558	0.21626794
115	0x3e14c07b	0.1452655
116	0x3d4427a9	0.047889385
117	0x3deae044	0.114685565
118	0xbe0a3bfb	-0.13499443
119	0x3dd0cf99	0.10195846
120	0xbea70644	-0.32621968
121	0x3e47d3d0	0.19514394
122	0xbe958be6	-0.29208297
123	0xbe2977de	-0.16549632
124	0xbec96202	-0.39332587
125	0x3def1289	0.11673457
126	0x3e1c0018	0.15234411
127	0x3e6172c8	0.22016442
128	0x3ddf7849	0.109116144
129	0xbd270ab9	-0.04078171
130	0xbcdb9671	-0.026805134
131	0xbd2251f4	-0.039628938
132	0xbcd298f2	-0.025707696
133	0xbd5a7ef5	-0.053343732
134	0x3d3af670	0.045645177
135	0x3bcd30c8	0.0062619187
136	0x3da397cd	0.07987938
137	0x3d945e70	0.07244575
138	0x3d4c534b	0.049884122
139	0x3e2e3e27	0.17015897
140	0x3e88cc58	0.26718402
141	0x3e342e7a	0.17595854
142	0xbd6aee3d	-0.057356108
143	0xbda5c564	-0.0809429
144	0x3d95c55e	0.073130354
145	0x3d814fea	0.063140705
146	0xbdce30de	-0.100679144
147	0xbd2f7143	-0.042832624
148	0x3d051c84	0.032497898
149	0x3d661378	0.05617091
150	0x3d1db9f6	0.038507424
151	0xbbf85ce0	-0.007579431
152	0x3dc0b32f	0.094091766
153	0x3d4d3e6e	0.050108366
154	0xbf083009	-0.53198296
155	0xbea278e5	-0.3173286
156	0xbf3eb3d3	-0.7449314
157	0xbf19f793	-0.60143393
158	0x3cd9b6ec	0.026576482
159	0xbdd2ef20	-0.10299516
160	0xbd0c8691	-0.03430802
161	0xbd4fda42	-0.050745256
162	0x3e402cdc	0.18767112
163	0x3e6bc136	0.23022923
164	0xbe8d64e3	-0.27616033
165	0x3d70fcae	0.058834724
166	0x3c2dc964	0.010607097
167	0x3e11caa4	0.14237458
168	0xbec909b4	-0.39265215
169	0xbed7e8e2	-0.42169863
170	0x3e3e8aa2	0.18607572
171	0xbd769b1c	-0.060206518
172	0xbcbc701a	-0.023002673
173	0x3d3931ad	0.04521339
174	0x3cec17a1	0.02881986
175	0x3dfb6b46	0.1227632
176	0x3c91bee2	0.017791215
177	0x3e1a4f85	0.15069397
178	0x3e7eda5d	0.24887986
179	0x3e702079	0.23449887
180	0x3e1b4939	0.15164651
181	0x3da4d948	0.080492556
182	0xbe048ae2	-0.12943605
183	0x3e38cf9b	0.18047945
184	0xbe5c2770	-0.21499419
185	0x3d8d52ca	0.069005564
186	0xbf09668d	-0.53672105
187	0xbe34cf23	-0.17657141
188	0xbebec9c7	-0.3726332
189	0x3d919e65	0.071102895
190	0x3e1e81b1	0.15479161
191	0x3e069ee0	0.13146544
192	0xbd38208b	-0.04495291
193	0xbc667f45	-0.014068429
194	0x3db5f24c	0.08884105
195	0x3da8f924	0.08250645
196	0xbdd10295	-0.102055706
197	0xbd593227	-0.053026345
198	0x3e120a42	0.14261726
199	0xbce90ebd	-0.02844941
200	0xbdc0a00a	-0.09405525
201	0x3c9d88e1	0.019230308
202	0x3e95675c	0.2918042
203	0xbe68ced3	-0.22735147
204	0xbe8cb576	-0.27482194
205	0xbe488f0a	-0.19585815
206	0xbd9c8fa8	-0.07644588
207	0x3e93c9be	0.28864855
208	0xbc2d776b	-0.0105875535
209	0xbd8fb023	-0.07016017
210	0xbd48d683	-0.0490327
211	0xbd8f2882	-0.06990148
212	0xbc8c4d6a	-0.017126758
213	0xbd885635	-0.06657068
214	0xbd96ec4f	-0.07369291
215	0x3dc1020d	0.09424219
216	0xbbfca532	-0.0077101225
217	0xbd8555da	-0.065105155
218	0xbdd03b1c	-0.10167524
219	0x3e85b1ba	0.26112157
220	0xbe0d7a59	-0.13816203
221	0x3e5fa432	0.2183998
222	0x3ddadb90	0.106864095
223	0x3ca820ff	0.020523546
224	0x3ce22740	0.027606606
225	0x3d02bed7	0.03192028
226	0x3efc903d	0.49328795
227	0xbdc7bcce	-0.097528085
228	0x3eed14cf	0.46304938
229	0xbef176cb	-0.47160944
230	0x3e9f770a	0.31145507
231	0xbd178fe0	-0.037002444
232	0xbe9e408c	-0.3090862
233	0x3eac8e52	0.33702332
234	0xbdae8e66	-0.08523254
235	0x3d2d01cb	0.042238038
236	0xbee60977	-0.44929096
237	0x3ec87e71	0.39158967
238	0x3d88ab96	0.066733524
239	0xbe0ad76e	-0.13558742
240	0x3e6643ab	0.22486751
241	0xbe3f711e	-0.18695495
242	0xbe001b3b	-0.12510388
243	0xbd822f2a	-0.06356652
244	0xbe0d6cff	-0.1381111
245	0xbd6d0897	-0.05786952
246	0x3d2d1584	0.042256847
247	0xbef77e00	-0.48338318
248	0x3d871720	0.065962076
249	0x3ddeae0b	0.1087304
250	0x3e52c9dd	0.20584817
251	0x3cd7e426	0.026353907
252	0x3db755fa	0.089519456
253	0xbd4b9142	-0.049699076
254	0x3dc54215	0.09631745
255	0xbe1371e1	-0.1439891

time_block.10.bias f4 [32]
0	0xbdd3b5ab	-0.10337385
1	0x3e13f8cb	0.14450376
2	0x3defadaf	0.117030494
3	0x3d05348a	0.03252081
4	0xbe40508f	-0.1878073
5	0xbd2f0256	-0.042726837
6	0xbdad2dc7	-0.08455997
7	0xbd1804be	-0.037113898
8	0xbdf44001	-0.1192627
9	0xbcec280c	-0.02882769
10	0xbdd85173	-0.1056241
11	0xbd5622de	-0.052279346
12	0xbd311392	-0.043231554
13	0xbe0c68fd	-0.13711925
14	0xbe641c05	-0.22276314
15	0xbd7971b1	-0.06089944
16	0xbdf05556	-0.117350265
17	0xbe2d7434	-0.16938859
18	0xbe134eae	-0.14385483
19	0xbe232b68	-0.15934527
20	0xbd4c5a97	-0.04989108
21	0xbdfda79e	-0.12385486
22	0xbdc18e10	-0.094509244
23	0xbe06d32d	-0.13166495
24	0xbd814897	-0.063126735
25	0xbe18801c	-0.1489262
26	0xbd750817	-0.05982217
27	0xbe1781bd	-0.14795585
28	0x3d73eec0	0.05955386
29	0x3c8ffda7	0.017577006
30	0xbe433a74	-0.19065267
31	0xbddc2606	-0.1074944

time_block.12.weight f4 [32, 32, 2]
0	0x3d2ed9e9	0.042688284
1	0x3db0c85b	0.08631965
2	0xbe576b11	-0.21036936
3	0xbe6ade98	-0.22936475
4	0xbe9c40eb	-0.30518278
5	0xbeead28b	-0.45863757
6	0x3e0b7613	0.1361926
7	0x3ddf8616	0.10914247
8	0xbdd1abf4	-0.102378756
9	0xbdcf1cb2	-0.10112895
10	0xbeeb0575	-0.459026
11	0x3d8bdcd8	0.06829232
12	0xbcde35f6	-0.02712534
13	0xbe2c2447	-0.16810714
14	0xbe045719	-0.1292385
15	0x3cad4186	0.021149408
16	0xbdc84996	-0.097796604
17	0xba156fd0	-0.000570056
18	0x3d266af2	0.040629335
19	0xbe92c1ef	-0.28663585
20	0xbcf38148	-0.029724732
21	0x3eb0d835	0.34539953
22	0x3cf6ee81	0.030143024
23	0x3c55ed08	0.013057001
24	0x3df95b45	0.121756114
25	0x3e1791ba	0.14801684
26	0xbf3946e1	-0.7237378
27	0xbecd3c4c	-0.40085065
28	0xbed84d54	-0.42246497
29	0xbe300afa	-0.17191687
30	0xbe93e6bd	-0.28886977
31	0xbd0f83c4	-0.03503777
32	0xba08261f	-0.0005193669
33	0x3cfd9768	0.030955985
34	0x3d38d287	0.04512265
35	0x3dda6fbc	0.10665843
36	0xbd4027b8	-0.04691288
37	0xbb838cb1	-0.0040145745
38	0xbcc8b5e8	-0.024500802
39	0x3e2abbe7	0.16673242
40	0x3e2afd14	0.16698104
41	0x3dc330de	0.09530805
42	0xbd108095	-0.035278875
43	0xbc60e479	-0.013726347
44	0xbccb6f39	-0.024833309
45	0xbc223ef5	-0.009902705
46	0x3cc63301	0.024194242
47	0xbd3af91c	-0.045647725
48	0xbf1635bd	-0.5867575
49	0xbe0be412	-0.1366122
50	0x3d9769c2	0.073932186
51	0xbc49dabd	-0.012320218
52	0xbd93b83b	-0.072128735
53	0xbd81a7f0	-0.0633086
54	0x3b8fe6af	0.0043915133
55	0x3d99d4bd	0.0751128
56	0xbe4ce067	-0.20007478
57	0xbebd4543	-0.36966905
58	0xbe945553	-0.28971347
59	0x3ce09cf6	0.027418595
60	0xbda2f634	-0.07957116
61	0x3e53261b	0.20620005
62	0x3d4a77cd	0.049430657
63	0x3da93b22	0.08263232
64	0x3d84d353	0.064856194
65	0x3b8e2214	0.0043375585
66	0x3ceca458	0.028886959
67	0xb9eecaea	-0.0004554608
68	0xbd1c5f9f	-0.03817713
69	0xbdcf61a8	-0.10126048
70	0x3d0941e7	0.033510115
71	0x3d9735a8	0.07383281
72	0xbd87d75e	-0.06632875
73	0xbc8cafef	-0.017173735
74	0xbd690542	-0.05688978
75	0xbcc6b9d1	-0.024258526
76	0xbdc60f86	-0.096709296
77	0xbddb57da	-0.10710116
78	0x3cd2cdd5	0.025732914
79	0xbcbefa5d	-0.023312742
80	0x3d02b8c8	0.031914502
81	0x3d6c3cf9	0.057675336
82	0x3d8f414a	0.06994875
83	0xbe221240	-0.15827274
84	0xbb3ade2e	-0.0028513777
85	0xbe0aa4d5	-0.13539441
86	0xbdd9f4d9	-0.10642404
87	0x3c6f0721	0.014589102
88	0xbdff17a7	-0.12455683
89	0xbcc5b720	-0.024135172
90	0xbdcd1ddf	-0.10015463
91	0x3d9c5fc0	0.0763545
92	0xbc1f872a	-0.0097368155
93	0xbcd5b9df	-0.026089607
94	0xbddbfd8f	-0.10741722
95	0xbb03a724	-0.0020088637
96	0x3d3638e1	0.044487838
97	0x3dd9232e	0.10602413
98	0x3d8c5c1f	0.06853508
99	0x3d970cdd	0.073755
100	0x3dd21172	0.10257234
101	0x3dbae9e8	0.09126645
102	0xbdd2fe2b	-0.10302385
103	0x3c98f9ac	0.01867374
104	0xbd0b83c1	-0.034061197
105	0xbe2e2dff	-0.17009734
106	0xbb9a8ad0	-0.004716255
107	0xbd3500f5	-0.044190366
108	0x3d3272f1	0.043566648
109	0xbc8526ed	-0.016253913
110	0x3dc90744	0.09815839
111	0x3d6e8ad3	0.05823786
112	0x3d8635de	0.06553243
113	0x3d952d5f	0.072840445
114	0xbd068a9d	-0.032847036
115	0x3dc9d297	0.0985462
116	0x3db7898e	0.08961783
117	0xbdce5ea8	-0.10076648
118	0x3da17912	0.078844205
119	0x3b8ecf1f	0.004358187
120	0x3ceca080	0.028885126
121	0xbde411e2	-0.111362234
122	0xbd917cef	-0.07103907
123	0xbdee1ef5	-0.11626998
124	0xbdd915e5	-0.10599879
125	0xbdc812c1	-0.09769202
126	0xbdca6557	-0.0988261
127	0x3d4ff729	0.05077282
128	0xbd84102b	-0.06448396
129	0x3badfe7f	0.0053098793
130	0xbe5469d4	-0.20743495
131	0x3e94be4a	0.2905143
132	0xbe23da28	-0.16001189
133	0x3dc3cada	0.09560175
134	0xbe395878	-0.18100154
135	0xbd282aa2	-0.041056283
136	0x3e64211b	0.22278254
137	0xbd6c3887	-0.057671096
138	0xbe716d77	-0.23576914
139	0x3ebfd5a0	0.3746767
140	0x3e02e4d7	0.12782608
141	0xbd4d2ca1	-0.05009139
142	0xbda1c5fe	-0.07899092
143	0xbd953f26	-0.07287435
144	0x3cc8eb57	0.024526281
145	0xbdb031d8	-0.08603257
146	0xbdf565be	-0.119822964
147	0xbec72880	-0.38898087
148	0x3de3af70	0.111174464
149	0x3e13a63d	0.14418884
150	0x3dcd8065	0.10034255
151	0x3d181652	0.03713066
152	0x3e659dd3	0.22423486
153	0xbe69436b	-0.22779624
154	0x3d9c201d	0.076233126
155	0x3d8bfb2d	0.06835017
156	0x3da01c2f	0.078178756
157	0xbde8c1fb	-0.11365124
158	0xbe97f9f5	-0.2968289
159	0x3e4a8df4	0.19780713
160	0xbdb8d145	-0.0902429
161	0x3de78ee5	0.11306552
162	0x3d98fabb	0.07469698
163	0x3cfff3c4	0.031244166
164	0xbd252794	-0.040320948
165	0xbc877e06	-0.016539585
166	0x3d4e5614	0.05037506
167	0xbe468866	-0.1938797
168	0x3d84bc98	0.06481284
169	0x3e5d63d2	0.2162011
170	0xbd64d951	-0.05587131
171	0x3db23c80	0.08702946
172	0x3db8367a	0.089947656
173	0xbd8ea9da	-0.0696599
174	0xbb615afd	-0.0034386509
175	0x3d134c0d	0.0359612
176	0xbe2037c0	-0.15646267
177	0x3e60765d	0.21920152
178	0x3dc1ce9b	0.09463235
179	0x3c67ad05	0.014140372
180	0xbd62dedd	-0.05538832
181	0x3da34a42	0.07973148
182	0xbe025d69	-0.12730946
183	0x3dfd9232	0.123814
184	0xbf0386ba	-0.5137745
185	0x3ed798cc	0.42108762
186	0xbd80cfa9	-0.06289608
187	0x3f0ff57c	0.56233954
188	0x3eea5288	0.4576609
189	0x3c94a8bd	0.018146867
190	0xbdea77e5	-0.11448649
191	0xbddb5157	-0.10708874
192	0x3c00dad5	0.007864674
193	0xbd56ea7e	-0.052469723
194	0xbb73bdd9	-0.0037192015
195	0xbda28f02	-0.07937433
196	0x3c843a40	0.016141057
197	0xbd3a24d7	-0.04544529
198	0x3e168dcc	0.14702529
199	0x3e8444cf	0.25833747
200	0x3ee6d7fb	0.45086655
201	0xbdbfce93	-0.09365573
202	0xbd984d5b	-0.074366294
203	0x3ea3d310	0.31996965
204	0x3e9f2f49	0.31090763
205	0xbe9fb30c	-0.3119129
206	0xbd411aeb	-0.04714481
207	0xbc8b6db0	-0.017020077
208	0xbd9b9dc1	-0.075984485
209	0x3d8c2737	0.06843417
210	0xbd3640ae	-0.044495277
211	0xbda26839	-0.07930035
212	0x3e2e0d9d	0.1699738
213	0x3eb0b519	0.34513167
214	0x3de741fa	0.11291881
215	0x3d2266c6	0.039648794
216	0x3e01124f	0.1260464
217	0xbb616bcf	-0.0034396534
218	0x3e979c15	0.2961127
219	0x3e86d0cf	0.26331183
220	0x3e2d2454	0.1690839
221	0xbe64741d	-0.22309919
222	0xbbd0b9a3	-0.006369786
223	0x3ee152a4	0.44008362
224	0xbd3fce00	-0.046827316
225	0xbd062abd	-0.032755602
226	0xbb8f5e69	-0.0043752682
227	0x3de7c039	0.113159604
228	0x3d8b9423	0.06815364
229	0xbd8b3038	-0.06796306
230	0x3e65a24a	0.2242519
231	0x3d881c79	0.06646056
232	0x3e55e619	0.20888557
233	0x3e1ab382	0.1510754
234	0x3bfc9bf6	0.0077090217
235	0xbd0f1db3	-0.034940433
236	0x3b927dc1	0.0044705574
237	0x3d284b15	0.04108723
238	0xbc879d2a	-0.016554434
239	0x3db1e1c2	0.08685638
240	0x3e01946d	0.12654276
241	0x3e067f85	0.13134582
242	0xbd0117f9	-0.031517003
243	0x3d2423d2	0.040073223
244	0x3a60e489	0.0008578976
245	0x3ddbc66c	0.10731205
246	0x3de20641	0.11036349
247	0xbc909a91	-0.017651828
248	0xbed575f6	-0.4169156
249	0x3e24ee7c	0.161066
250	0xbe40f88b	-0.18844812
251	0x3ed9681d	0.42462245
252	0x3e8fba4d	0.28071824
253	0x3ea26c85	0.3172342
254	0xbdea4585	-0.11439041
255	0x3dbad4b6	0.09122603

time_block.12.bias f4 [32]
0	0xbd87a82b	-0.06623872
1	0xbe25838f	-0.16163467
2	0xbc3bad17	-0.011454842
3	0xbd433612	-0.047658987
4	0xbcd75683	-0.02628637
5	0x3ea2fafc	0.3183211
6	0xbd1ecb90	-0.03876835
7	0x3c36851e	0.011140136
8	0x3cb8cf58	0.022559807
9	0xbdb262d0	-0.08710253
10	0x3d388975	0.045052964
11	0xbd268a94	-0.040659502
12	0xbe4f3f45	-0.20238979
13	0xbe47c750	-0.19509625
14	0xbca22d3b	-0.019796958
15	0xbcad8108	-0.021179691
16	0x3d9bf465	0.07614974
17	0xbddf55c7	-0.109050326
18	0x3c39b38b	0.01133431
19	0x3dada71c	0.08479139
20	0xbde7d02b	-0.11319002
21	0xbe2cdaef	-0.16880392
22	0xbd478479	-0.04871032
23	0xbdf6f738	-0.12058872
24	0xbd818932	-0.06324996
25	0xbd829413	-0.06375899
26	0x3d4ccfc8	0.050002843
27	0xbe10334a	-0.14082065
28	0xbdb8a3a4	-0.09015587
29	0xbdbe2b71	-0.092856295
30	0xbe153e9b	-0.14574663
31	0xbdbde6dc	-0.092725486
